ai/trained_policy.pth (torch, 891869 bytes, 19 tensors)

action_conv.0.weight f4 [32, 24, 3, 3]
000000 cf 39 24 3d a1 a1 99 3c 36 90 43 bc 41 22 7e 3d
       0.040094193 0.018753828 -0.011936238 0.062044386
000010 6a 34 c2 ba 6d 92 7a 3c cb 75 d1 3c d7 ee 4e bd
       -0.0014816646 0.0152937 0.025568863 -0.050520744
000020 6a de 3a 3d d3 4c d8 bc 57 d8 60 bd ad a1 f4 bc
       0.045622267 -0.02640382 -0.054893818 -0.02986225
000030 da e8 d1 3c 94 c5 05 3d a3 98 23 3c d8 88 47 bd
       0.025623728 0.03265913 0.009985122 -0.04871449
000040 ab 17 31 bd ce 6a b3 3c 4c ca 64 3d 4f 8e 3c 3c
       -0.043235462 0.021901514 0.055856988 0.011508538
000050 90 03 36 bb e2 98 d2 bc ee 1e f2 bc 5b 50 5c bd
       -0.002777312 -0.025707666 -0.029555764 -0.05378757
000060 a3 e7 ca 3b 23 e4 14 3d d8 ec e2 3b 54 6b 6f bd
       0.006192164 0.03635038 0.0069252066 -0.058451965
000070 48 47 e9 3c ad 3b 2e bd 7f 27 e5 bc 4c 22 9b bb
       0.028476372 -0.04253738 -0.027972935 -0.004734313
000080 7f ea 88 3d 64 28 7d bc fb 7c 26 3d 13 06 04 3d
       0.066853516 -0.015451524 0.040646534 0.032232355
000090 4d 4d 2c 3d cb 82 4e 3d 31 03 6c 3d 45 1e 07 3d
       0.042065907 0.050417703 0.05762023 0.03298785
0000a0 5a ad ab 3c ff d2 17 bc 5d 2d 1a bc 0f c9 c8 bb
       0.020956684 -0.009266614 -0.0094102295 -0.0061274837
0000b0 c7 55 88 3c d3 b8 5f bc bc 4a 85 3d 43 f1 55 3d
       0.016642464 -0.013654905 0.06508395 0.05223204
0000c0 f2 fd 2a 3d b3 f3 35 bd 6f 64 1b bb b5 3c 3e bd
       0.041746087 -0.044421863 -0.0023710986 -0.046444613
0000d0 f9 98 7b bd 52 28 21 3d 63 6c 63 bd 81 f2 62 bd
       -0.061425183 0.039345093 -0.055523288 -0.05540705
0000e0 8c fa 43 3c 21 dc 4f 3c 91 8e 89 3d 2b 8c 88 3d
       0.0119615905 0.01268676 0.067166455 0.0666736
0000f0 b1 d4 39 bd c3 82 92 bc ae c0 2b bd a7 94 a0 bc
       -0.045368854 -0.017884618 -0.0419318 -0.019602133
000100 d1 a4 18 3d 01 a4 39 bd 6f dd 83 bd ca fb 19 bd
       0.037266556 -0.045322422 -0.064387195 -0.03759364
000110 00 ef 59 3d 43 8b 32 3c 8a d7 ed 3c 46 04 84 bd
       0.053206444 0.01089746 0.029033441 -0.064461276
000120 f3 9f e1 3c ab c0 95 3c d5 34 17 bd 84 c4 73 bd
       0.02754209 0.018280348 -0.03691562 -0.059513584
000130 63 9b 04 3c 78 26 08 3d 65 a5 2a 3d 2e b4 e4 bc
       0.008093688 0.03323981 0.04166164 -0.027917948
000140 ed bb f4 3c 0e 29 4f 3c 3f 35 50 bc 0a 63 34 3d
       0.029874766 0.012644066 -0.012708007 0.044039764
000150 e8 d0 9a bc 10 00 1e bd 28 92 3f 3d 9c e8 02 bd
       -0.018898442 -0.03857428 0.046770245 -0.031960115
000160 de 67 b1 bc 68 b6 15 bd e8 3c b0 3b 43 09 5f bc
       -0.021655973 -0.03655091 0.0053783543 -0.013613048
000170 df f9 7e 3d 84 3e 71 bc 0f bf ef 3c 16 7d 60 bd
       0.062250014 -0.014724378 0.029265909 -0.05480679
000180 36 93 0a 3d d7 10 37 3b be 72 8d 3c 9a 2a e5 3b
       0.033831798 0.0027933621 0.017266627 0.006993604
000190 11 d6 07 3d 6d fc 4c 3d 43 c2 8b 3c 07 38 21 bd
       0.033163134 0.05004542 0.017060405 -0.039360072
0001a0 87 38 e0 bc 37 be e9 3b bb 52 40 bd 33 11 51 bb
       -0.027370704 0.007133271 -0.046953898 -0.003190112
0001b0 61 2f 57 bd c7 d9 34 bd 9f b8 1d bc 00 91 d9 3c
       -0.05253542 -0.044153 -0.009626537 0.0265584
0001c0 8e 48 1e 3d ba ca 35 bd 17 d4 62 3c d5 be 23 bd
       0.038643412 -0.04438279 0.0138445115 -0.039976913
0001d0 fd d1 4c 3d 90 e0 10 3b 07 6a 2b bd 22 c4 47 3c
       0.050004948 0.0022106506 -0.041849162 0.012192758
0001e0 54 aa 86 bd 32 ec 83 bc 86 b2 e7 bc 15 f4 3b 3d
       -0.06575456 -0.016103838 -0.028283369 0.04588707
0001f0 b3 a4 52 bd a1 97 09 3d f6 d1 85 3d 7c 84 6d 3d
       -0.0514266 0.03359187 0.065341875 0.057987675
000200 31 4f a9 3b 62 34 f6 bc 3d 1d 33 bd e4 0e 72 bd
       0.005166911 -0.030054275 -0.043729056 -0.059096232
000210 c8 78 54 3d 0b 89 0e bd b2 39 4d bc 06 bc 44 bd
       0.051873 -0.034798663 -0.012525963 -0.048030876
000220 28 cf 80 3d 27 07 8e 3c 2f 15 86 bc 30 7a 36 bb
       0.06289512 0.017337395 -0.016367523 -0.0027843826
000230 7c 3e 7c bd f1 fa bd 3c 2b 4e 22 3d f9 9a ff ba
       -0.061583027 0.023190947 0.039625328 -0.0019501142
000240 66 e3 05 bd e2 ff 59 bc fe 88 b4 bc f5 ca 49 bd
       -0.032687567 -0.013305636 -0.02203798 -0.04926582
000250 e1 ce 80 bd 3c 94 0a bb 21 6a b0 bb 6e 38 86 3d
       -0.06289459 -0.0021145483 -0.0053837453 0.06553732
000260 96 cb 40 3a 00 fd 7e bd 98 99 c0 3c 58 2f dd bc
       0.00073545554 -0.062253 0.02351074 -0.027000114
000270 f9 c7 24 bd cb 6c be bc 29 f2 03 bd c4 5a 03 3c
       -0.04022977 -0.023245236 -0.032213364 0.008017246
000280 d4 89 1e bd ae d5 8b 3c 56 16 ec 3c 4c cb 30 3d
       -0.038705662 0.017069664 0.028819244 0.04316263
000290 7c bd 5a 3d 70 91 5b bd 26 13 36 3d 33 4c 8b bc
       0.053403363 -0.053605497 0.044451855 -0.017004108
0002a0 e9 14 2c 3c 21 02 35 3d 43 b0 1c 3d 7d 5a 04 3d
       0.010503032 0.044191483 0.038254034 0.03231286
0002b0 e6 b0 83 3d df 0e 82 bd 90 bf 91 3c bf f3 8a 3d
       0.06430225 -0.06350493 0.01779154 0.06784772
0002c0 ac 80 b2 3b 58 8d 80 3d d7 03 b4 bc d5 37 21 bc
       0.005447468 0.06276959 -0.021974487 -0.009839972
0002d0 13 c6 82 3d 49 e2 86 3b 20 76 38 bd 13 59 5d bd
       0.06385436 0.0041163308 -0.045034528 -0.054040026
0002e0 19 86 53 bd 91 be e3 bb 3d a7 c0 3c 13 50 c0 3c
       -0.051641557 -0.0069502075 0.023517245 0.023475682
0002f0 66 c8 97 bc f2 a0 0f 3d 5e a7 88 3d 90 19 b5 3b
       -0.018528175 0.0350656 0.06672548 0.005526729
000300 d6 84 2a 3c 39 72 01 3b 75 60 17 3d e6 96 95 bc
       0.010407647 0.001975192 0.036957223 -0.01826043
000310 a7 ca 82 bd 9e bf 83 3d 73 73 37 3d e0 18 1c bc
       -0.06386309 0.064330325 0.044787835 -0.009527415
000320 06 13 0a 3d 06 15 9b bc fd 27 2b bd 35 04 13 bc
       0.03370955 -0.018930923 -0.041786183 -0.008973171
000330 29 63 5e bd 3c 1f 51 bb 07 91 cd 3c 83 68 83 bd
       -0.054293785 -0.0031909486 0.025093568 -0.064164184
000340 34 49 0f bd ea ea 03 bc 76 d4 11 bd 0a e3 08 3d
       -0.03498192 -0.008051613 -0.03560301 0.033419646
000350 0a c6 5c 3d 6a 8c 35 3d 80 95 1d 3c 22 12 83 3d
       0.053899802 0.044323362 0.009618163 0.06399943
000360 3d c7 2a 3d 69 c4 64 bd 41 9b 63 bd f9 c5 27 3d
       0.041693915 -0.055851374 -0.055567984 0.040960286
000370 ae 1e d6 bc da 1d 6f 3c ae 2d 6e bd 32 a8 4e 3c
       -0.026137676 0.0145945195 -0.058149032 0.012613343
000380 43 7e 5c 3d d6 e7 96 3b 2f 58 d7 bc b0 38 14 bd
       0.05383135 0.0046052737 -0.026287166 -0.036186874
000390 35 78 29 bc 76 4f 09 bd e9 7b 73 3c 11 06 33 3d
       -0.010343601 -0.033523045 0.014861085 0.043706957
0003a0 c8 1f 42 3d 55 34 b6 bc f9 28 01 3d 25 20 bf bc
       0.04739359 -0.02224175 0.031533215 -0.023330757
0003b0 80 c2 80 bd 0c 1e 68 bd a6 dc 31 3c b6 23 4f bd
       -0.06287098 -0.05666928 0.010855829 -0.050571166
0003c0 6d 8a b6 bc 75 53 60 bb 5d 16 88 bd c7 70 d7 bb
       -0.022282803 -0.0034229432 -0.066448905 -0.0065747234
0003d0 d4 bd 17 bd 63 5b de 3c a2 d4 78 3d f7 3c dd bb
       -0.03704627 0.027143186 0.060749657 -0.0067516523
0003e0 d9 27 3b 39 20 a3 3d 3c aa a0 95 3c de 59 22 bd
       0.00017848554 0.011574537 0.018265087 -0.039636485
0003f0 e2 cf d0 bc 70 31 36 bd a9 32 ba bc b0 bc 3b 3b
       -0.025489751 -0.04448074 -0.022729235 0.0028646402

action_conv.0.bias f4 [32]
000000 19 a2 ef bc b8 a5 80 bd f5 f5 5f 3c a5 b6 ca bc
       -0.029252099 -0.06281608 0.013669481 -0.024745295
000010 7b 43 1d 3d 54 19 76 bd bf f6 16 bd 2c c9 30 bd
       0.038394433 -0.06008275 -0.03685641 -0.043160602
000020 78 c8 02 3d 9f 2b 62 3d 5c d8 d8 bc 52 1c b6 3c
       0.031929463 0.05521738 -0.026470356 0.022230301
000030 f0 3f f6 3c d6 90 1d bd bd a8 b6 bc 22 64 5c bd
       0.030059785 -0.038468204 -0.022297258 -0.05380643
000040 d0 f4 ff 3c 4a d2 0c 3d 89 b1 85 bd 23 0d 65 bd
       0.031244665 0.034380235 -0.06528003 -0.05592073
000050 e5 10 70 bb a2 0a 11 bd 76 86 70 bd 11 16 87 bd
       -0.0036631164 -0.03541053 -0.058721982 -0.06596006
000060 6b 2a 25 bd 51 9b 5f 3d 94 12 6c 3d 4a 2f 40 bd
       -0.040323656 0.05459148 0.057634905 -0.0469201
000070 8d 96 14 bd 46 c3 37 bb 6a b1 48 bd 7c 69 4c 3d
       -0.03627639 -0.0028039976 -0.04899732 0.049905285

action_conv.3.weight f4 [64, 32, 3, 3]
000000 d2 53 0f b9 8d b8 c3 3c f0 3e 49 bd 89 ae bd bc
       -0.00013668768 0.023891712 -0.049132288 -0.023154514
000010 8a 36 61 3d 60 b9 56 bc ff 70 5f 3c fe d9 43 3c
       0.054983653 -0.01310572 0.01363778 0.011953829
000020 15 7b fe ba 88 89 34 3d d9 6e 02 bd ee 94 62 3d
       -0.0019415343 0.044076473 -0.031843994 0.05531781
000030 5d e6 72 3c 4f 32 67 bd 87 7b c0 bb 52 a6 5e bd
       0.014825431 -0.056444462 -0.0058741006 -0.054357834
000040 4a 33 02 bd 08 82 10 3d c3 4d f2 3c 6d 57 05 bc
       -0.031787194 0.035280257 0.029578095 -0.00813852
000050 93 1b f8 3c b7 15 ab bc 31 9b 5f bd a7 40 bf bc
       0.030286586 -0.020884378 -0.05459136 -0.023346258
000060 0d 7e 6d 3d 43 2c 64 bd d2 5b 8b bc ea f3 34 bc
       0.05798154 -0.055706274 -0.017011557 -0.011044482
000070 86 46 0d bd 09 bc 06 bc f2 0b e9 3c 30 d5 51 3c
       -0.034491085 -0.008223542 0.028448079 0.0128071755
000080 68 99 34 3d 40 ac 29 3d 71 13 9f bc e3 70 34 3d
       0.044091612 0.041424036 -0.01941845 0.04405297
000090 0a 18 3c bd 0f 93 af 3c a2 ba c7 bc a7 59 98 3c
       -0.045921363 0.021432428 -0.024380986 0.018597437
0000a0 e1 f2 bc 3c 57 a5 11 bd 8a ce 39 3d b3 a7 d1 bc
       0.023065032 -0.03555807 0.045362987 -0.02559266
0000b0 7a f4 52 3d fa d7 82 bc d5 bf 29 3d c4 cc 69 3d
       0.051502682 -0.015972126 0.04144271 0.057080045
0000c0 1d 5a 84 3c ac 03 f7 bc a4 7c 5c bd 89 67 9f bc
       0.01615625 -0.030153118 -0.053829804 -0.01945855
0000d0 86 9a 33 3d c0 23 ed bc 2c ca 1a 3d 75 14 16 bd
       0.043848537 -0.028947711 0.037790462 -0.036640603
0000e0 78 70 3a bc e5 66 8a bc 5c 21 57 3d aa b7 54 3d
       -0.011379354 -0.016894767 0.05252205 0.05193297
0000f0 bc f5 1d bd 0a 50 fb bc e7 84 5c bd 0f ff 7c bc
       -0.03856443 -0.030677814 -0.053837683 -0.01544167
000100 0f 17 64 3d 78 97 43 bd 9e 12 17 bd 46 4d 77 bc
       0.055686053 -0.047751874 -0.03688299 -0.015094107
000110 22 3e 30 bd c8 bb 50 bd 10 0c 07 bd 96 69 a7 3b
       -0.043028004 -0.050960332 -0.032970488 0.0051090224
000120 92 cb 4c bd 12 8a 27 3c 9f b9 64 3d f8 ee 6a 3d
       -0.049998827 0.01022579 0.055841085 0.057356805
000130 8e b5 06 bd 40 34 e6 bc d6 83 15 3b eb 85 26 bd
       -0.032887988 -0.028101087 0.0022814176 -0.040655058
000140 29 fd 5d 3d 0f 87 5a 3b b2 69 d2 bc 77 65 d6 3b
       0.05419651 0.0033344661 -0.025685165 0.0065428573
000150 8b ff 69 3b 0d b0 fa bb 29 7f 94 bb da 91 cd bc
       0.0035705294 -0.0076503814 -0.0045317602 -0.025093962
000160 eb 32 e8 bc 50 97 14 bd 96 30 03 bd 1a 94 59 3d
       -0.028344592 -0.036277115 -0.032028757 0.053119756
000170 cc 34 17 bb 3c 59 02 bd c1 c7 22 3d 44 a7 3b 3d
       -0.002307224 -0.03182338 0.03974128 0.045813814
000180 3e 82 ec 3c 05 95 07 bd d6 2c 41 3d e0 82 74 bd
       0.028870698 -0.0331011 0.0471619 -0.059695125
000190 0a 11 63 bd 10 1a 6a 3c f2 5d 0b 3d a1 e5 c8 3c
       -0.05543617 0.01428844 0.03402514 0.024523558
0001a0 a2 94 7d bc 85 fc 8e 3b 27 91 2c bd dd 8e 44 bc
       -0.015477331 0.004363599 -0.042130616 -0.011996952
0001b0 a2 84 35 3c c0 86 3d bd 16 60 85 3a 04 ad 86 3c
       0.011078985 -0.046271086 0.001017573 0.016439922
0001c0 12 70 ba 3c 12 a7 01 3d 86 b0 2a bd 67 2d 38 3c
       0.022758517 0.03165347 -0.041672252 0.0112412935
0001d0 85 35 6d bc bd 88 d2 bc 60 eb 1a 3d d7 eb 05 bd
       -0.014478092 -0.025699968 0.037822127 -0.032695618
0001e0 2f 8a de 3c f4 e7 5e 3d 75 97 73 bd 1d 8d 5c bd
       0.0271655 0.054420426 -0.059470613 -0.053845514
0001f0 35 c6 35 bc 70 ed 24 3d 8b 5b fc bc e9 13 d8 ba
       -0.0110946195 0.0402655 -0.03080537 -0.0016485426
000200 6a 69 e4 3c 51 dd 82 3c 2d 9e 8f bc 72 8f 32 3d
       0.027882297 0.015974673 -0.017531479 0.04359383
000210 34 6d 51 bc b3 81 36 bc 8f 88 1d 3d 68 4a 33 3d
       -0.012782384 -0.011139321 0.03846031 0.04377213
000220 18 45 45 3b a7 81 bf bc d2 ca 6b 3d ae 48 5f bd
       0.0030100998 -0.023377253 0.05756647 -0.054512672
000230 c3 4b 61 3b be aa 2a bc 18 ef 04 39 ce b3 fe bc
       0.0034377433 -0.010416685 0.0001267757 -0.031091597
000240 55 73 13 3d 10 b0 30 3d f5 bf 1a bd 47 14 99 bc
       0.03599866 0.043136656 -0.03778072 -0.018686427
000250 a9 05 4b bc e7 e0 9e 3c 6f 09 3c 3d 7f 5b 1e bd
       -0.012391486 0.019394351 0.045907434 -0.038661476
000260 1a ef 2e bc 11 8e 29 3d c1 81 fa bc 37 f1 81 b6
       -0.010677123 0.04139525 -0.03057945 -3.8725807e-06
000270 41 ba a1 3c d2 2d 79 3c 09 c7 12 3d 2b f5 07 bd
       0.019742133 0.015208678 0.035834346 -0.033192795
000280 48 31 9f bc ed 0d 12 3d bf 65 6d 3d e4 53 15 3c
       -0.019432679 0.035657812 0.05795836 0.009114239
000290 8d cd 03 bc 6d cc 2f 3d 6a ab 24 bd 32 5e 2e bd
       -0.008044613 0.042919565 -0.040202536 -0.0425703
0002a0 01 56 e1 3c 63 22 42 bd 1d ce b1 bc a7 fa ad 3c
       0.02750683 -0.047396075 -0.021704728 0.021237684
0002b0 ee bc 6e bd ee 06 55 ba 10 fe aa 3c f6 cc 68 3d
       -0.058285646 -0.0008126338 0.0208731 0.05683609
0002c0 d1 eb 48 3c 2b d0 00 3d 37 b9 3e bc 93 87 71 bd
       0.012263254 0.031448524 -0.011640838 -0.058967184
0002d0 14 da 48 bd 11 b4 7e bc d4 8c 8e bc b6 8c 13 bc
       -0.0490361 -0.015545861 -0.017401136 -0.009005716
0002e0 54 ca c0 bb 86 ea 07 3c f7 fd 66 bd b7 ed d1 bc
       -0.0058834944 0.008295661 -0.056394543 -0.025626047
0002f0 e8 08 b9 bc 59 53 51 bd 40 61 66 3d ff 19 20 bd
       -0.022587255 -0.051104877 0.05624509 -0.03908729
000300 c0 00 c4 ba 4f 08 41 bd d6 2a 55 3d fb 46 0d 3d
       -0.0014953837 -0.047127064 0.052042805 0.03449152
000310 ba 15 56 bd 1d ad 3d bd 24 a1 09 bd e2 19 bd 3b
       -0.052266814 -0.04630767 -0.03360094 0.0057709077
000320 f6 ef 11 bd a0 30 6b bd 3a 23 d2 3b d0 6b 4f 3c
       -0.035629235 -0.05741942 0.0064128907 0.012659982
000330 4f ad 57 3d 57 dd d0 3c e1 01 67 bd a8 8a 15 3d
       0.052655514 0.025496168 -0.056398276 0.036509186
000340 94 48 8c 3c a4 7e 3a bd 97 29 f9 bc 85 5a 1d bd
       0.017124452 -0.04553093 -0.03041534 -0.038416404
000350 c0 89 eb ba f5 d9 48 bd c1 70 59 bd 74 08 47 3c
       -0.001797013 -0.049035985 -0.053086046 0.0121480115
000360 0c f2 66 bd a0 ad 2c bd d3 e8 42 bd 08 04 5d bd
       -0.056383178 -0.04215777 -0.04758532 -0.053958923
000370 13 f4 84 3c 7b 36 82 3c a2 6d 41 3d 73 b0 66 3c
       0.016229665 0.015895119 0.047223695 0.014080155
000380 ea 67 01 3d 63 93 2e 3d 77 e9 8b bc 96 39 57 bd
       0.03159324 0.042621028 -0.017079098 -0.052545153
000390 c4 1d 86 bc bb 1b 2d 3d 08 c1 53 3d f5 6b 4f bd
       -0.016371615 0.042262774 0.05169776 -0.050640065
0003a0 ef e4 3b 3d f1 20 a7 bc ad 5d 56 bd 7d 6b 2a 3d
       0.045872625 -0.02040145 -0.05233543 0.041606415
0003b0 65 f0 ae 3c 2f 18 97 bc fc 1e a6 bc 38 3e 63 bc
       0.021354863 -0.018444149 -0.020278446 -0.013869815
0003c0 03 8a 83 3a 09 bc 5e 3d 35 0d 39 3c a2 d0 4d 3d
       0.0010035638 0.054378543 0.011294653 0.050247796
0003d0 b8 80 a3 bc 29 01 93 3b 83 6f a8 3c a4 76 1e bd
       -0.019958839 0.0044862223 0.020560985 -0.038687363
0003e0 c2 97 16 bc 58 b1 5f 3d af 06 98 3b dc a5 05 3d
       -0.009191455 0.054612488 0.0046394686 0.03262888
0003f0 ea 19 26 bc e5 f0 de bc 8e 27 40 3d 3e df 0d 3c
       -0.010138014 -0.027214477 0.046912722 0.008659182

action_conv.3.bias f4 [64]
000000 20 c4 e9 3b 25 34 50 bc 8c 41 38 bd f0 51 04 bd
       0.0071339756 -0.012707745 -0.044984385 -0.032304704
000010 85 4f e3 bc 29 ae 5d ba 9e aa 6f 3c 60 32 47 bd
       -0.027747879 -0.0008456433 0.014628081 -0.048632026
000020 59 eb cd bc 65 22 33 bd 66 85 62 3b 30 4d af 3c
       -0.025136637 -0.043733973 0.0034564375 0.02139911
000030 a6 6f 10 bd 51 a7 66 3d 45 54 5e bb 7c 56 d7 3c
       -0.035262726 0.05631191 -0.003392474 0.026286356
000040 b8 79 3a bd 3c de 0c 3d 2e 6e e5 3c 56 c8 43 bd
       -0.045526236 0.034391627 0.02800664 -0.047798477
000050 26 8d af 3c c8 a5 12 3d 8e 99 df bb 9b 26 45 bd
       0.02142961 0.035802633 -0.006823725 -0.04813252
000060 21 e2 5b bd a0 95 64 bd 54 cb 41 3d 3d 52 b4 bc
       -0.05368245 -0.055806756 0.04731305 -0.02201187
000070 97 4f 47 bc 88 65 02 3d a8 b8 d1 3c 9c aa 14 bd
       -0.012164972 0.03183511 0.025600746 -0.03629552
000080 f7 af 9d bc 43 d1 e0 3c 87 22 0f 3d 35 7d 0f bd
       -0.019248946 0.027443534 0.034945037 -0.035031516
000090 36 21 ea bc 10 95 55 bd 63 b8 8b bc 24 b3 14 bd
       -0.02858029 -0.05214411 -0.017055696 -0.036303654
0000a0 78 2d 7f bc ea e4 f0 3c 28 0e 27 bd bc 35 cd bc
       -0.015574805 0.02940603 -0.040784985 -0.025050037
0000b0 20 7e 46 bc f3 5f 20 3d f0 67 f2 ba 67 78 48 3d
       -0.0121150315 0.039154004 -0.001849411 0.04894295
0000c0 a7 1c 89 3c be cb d9 bc a0 b9 ef 3c 13 83 9c 3c
       0.016737295 -0.02658641 0.029263318 0.01910547
0000d0 95 94 e3 bb 18 23 92 bc 6d c0 2e bd 18 a8 fb bc
       -0.0069452026 -0.017839 -0.04266398 -0.030719802
0000e0 83 2b 06 3d 44 f5 d6 bc 9b da 19 bd fe 3f 62 bd
       0.03275634 -0.026239999 -0.037561994 -0.05523681
0000f0 d4 0f 2b bd 7e ec 20 3d 6f c0 6c 3c 84 21 b7 3c
       -0.04176314 0.039288037 0.014450177 0.022354849

card_conv.0.weight f4 [32, 6, 3, 3]
000000 79 ac bd 3c ee 6c e3 bd 50 46 65 bb c0 36 02 be
       0.02315353 -0.11104761 -0.0034984536 -0.12716198
000010 75 41 8d 3d b8 59 93 3c fd b1 86 bc 59 19 c3 bd
       0.068972506 0.017987117 -0.016442293 -0.09526319
000020 ea 8b 01 3e 51 2f 03 be e5 fb b7 3d 33 fb ba bd
       0.12651029 -0.12811019 0.08983592 -0.09129944
000030 c4 82 25 bd a0 6e 2c bd 05 66 79 bc 7a 9b c9 3d
       -0.04040791 -0.042097688 -0.015222077 0.09844108
000040 b5 12 54 3d 5e 8d d3 bd 5d 53 77 3d 59 36 7a 3d
       0.051775653 -0.10329698 0.060382236 0.061086986
000050 9d c6 87 3d d7 05 bf bd 63 53 8f bd 5c 7f 90 3d
       0.06629679 -0.09327286 -0.06998327 0.07055542
000060 5a fc f8 bd 6f bb d9 3d c9 95 6f 3d 27 7a 9c 3d
       -0.12157507 0.10631453 0.058492456 0.07640486
000070 a9 ff 4a bd f5 32 08 be eb f8 19 3d 8d 63 f6 bd
       -0.049560223 -0.13300689 0.037590902 -0.120307066
000080 05 f7 03 be 7b 41 f9 bc c9 0a 14 3d e2 15 01 3e
       -0.12887199 -0.030426731 0.036143098 0.12606004
000090 e4 28 83 bc 56 a4 29 ba e8 22 d5 bc 46 7e dc 3d
       -0.01601071 -0.00064713263 -0.026017621 0.10766272
0000a0 ca ec 02 3e ad cc 1b bb f2 ea 0a be 07 41 4f 3d
       0.1278564 -0.002377312 -0.13566187 0.050599124
0000b0 d1 0e 86 3d 99 bd a4 bd 59 df 06 bd ca af d5 3d
       0.06545795 -0.080439754 -0.032927845 0.1043392
0000c0 dd b3 dd bd 83 a5 6f 3d 11 5f b6 bc 9d 5e d6 bb
       -0.10825322 0.058507454 -0.022262128 -0.0065420405
0000d0 ab f4 02 bd 27 d2 63 bc 5e 0c 0e 3d cd 5d a9 bd
       -0.031971615 -0.013905085 0.034679763 -0.08269844
0000e0 c9 36 ff bd 09 15 ae 3d 67 e0 53 bd 2c 5a da bc
       -0.12461621 0.08500106 -0.05172768 -0.026654325
0000f0 fc 9f f2 3d 26 08 00 3e 75 0c 47 3d 3e 80 c5 3d
       0.11846921 0.12503108 0.048595864 0.09643601
000100 f8 0c da 3d f5 0d c8 bd 80 af d0 bd f1 f6 f0 3d
       0.10647005 -0.09768287 -0.10189724 0.1176585
000110 47 a2 d9 3d 35 b8 d9 bd 25 de d0 3d 5f fe 67 bd
       0.10626655 -0.10630838 0.10198621 -0.05663907
000120 b7 87 02 3e f2 74 b0 bd 3b 34 be 3d b0 c9 b1 bc
       0.12747084 -0.086160555 0.09287306 -0.021702617
000130 a0 09 f5 bd 38 3f fa bd 76 b6 91 bc 60 d0 1b 3d
       -0.119647264 -0.12219089 -0.0177872 0.03804052
000140 a6 af 60 bd f5 c8 c2 bd 37 6f b2 3d 3e 37 87 bc
       -0.05485501 -0.09510986 0.08712619 -0.016505834
000150 c1 cc ba 3c ca e2 02 3e b5 96 93 bd 1f 2b a6 3d
       0.022802712 0.12781826 -0.072064795 0.081136934
000160 92 17 f5 3d 09 9f fe 3d 72 ef f1 bc 4f b9 e6 bd
       0.11967386 0.12432677 -0.029533122 -0.112658136
000170 cb 0d 5b ba 7a 08 4f bd 41 d5 fe bc 59 c1 2c bd
       -0.00083562423 -0.050545193 -0.031107547 -0.04217658
000180 42 85 3d 3d bb 18 f2 3d c3 7b f5 3d 14 dd 20 3d
       0.046269663 0.11821123 0.11986496 0.039273337
000190 67 77 d7 bd 9c 65 4f bc 2d 8a ae 3d 9f 3b e7 3c
       -0.10520821 -0.012658503 0.08522449 0.028226672
0001a0 f8 51 a9 bd 63 91 82 3d 2e 6b 97 3d 74 5b 6d bd
       -0.082675874 0.063753866 0.0739349 -0.057948545
0001b0 8d 03 be 3d 2a 78 ab 3d 1e d4 08 be 35 90 40 3d
       0.09278021 0.08372529 -0.13362166 0.047012527
0001c0 5e af 27 bd 50 39 e1 bb 58 2f e6 3d 4d 38 b2 b9
       -0.040938728 -0.0068732873 0.11239499 -0.00033992753
0001d0 e5 92 44 bd 9f 97 77 bd 3e 26 90 3d 79 4f 61 3d
       -0.047991652 -0.06044733 0.07038544 0.05500743
0001e0 df b2 e7 3d 47 31 88 3d a1 e2 0d bd 50 b1 ef bc
       0.11313414 0.06650024 -0.03463996 -0.029259354
0001f0 ed 0d 6c 3d 38 b0 67 bc 5f 3b 78 bd 9b 8c 29 3d
       0.05763047 -0.014141135 -0.060603496 0.041393857
000200 c9 f9 db 3d da 9f bf 3b 2e c9 9e bd 71 27 05 3e
       0.10741002 0.005847913 -0.07753216 0.13003327
000210 b6 15 17 bd 67 4b 0a 3d 96 2f 87 bc f0 8b 79 3d
       -0.03688594 0.033763316 -0.016502183 0.06092447
000220 a2 8e ea 3d 8a b7 bf bd 5e a0 d1 3d 8f 08 8e bd
       0.11452986 -0.09361179 0.10235666 -0.06935226
000230 2c 34 84 3c 79 7b 59 3c a2 da e8 bd 97 e1 be bc
       0.016138159 0.013274067 -0.11369826 -0.023300929
000240 58 f2 92 3a 10 5f c8 3d 5c bc 43 3d 3c 0f 57 3b
       0.001121114 0.09783757 0.047787055 0.0032815477
000250 db f8 e0 bd ab fe bb bb cb 5e 82 3d 87 d4 5c bd
       -0.109849654 -0.005737146 0.063657366 -0.05391362
000260 c4 cd 6b 3d c9 38 bb bd d9 4f 8c 3d 74 d7 9e 3d
       0.05756928 -0.0914169 0.06851167 0.07755938
000270 76 01 ea bd ef 98 59 bd 31 30 75 bd ac 4f f6 bc
       -0.1142606 -0.053124364 -0.059860412 -0.030067287
000280 a8 ac 69 bd b0 d9 ed 3d 22 37 18 bd 32 3a 70 3d
       -0.057049423 0.11613786 -0.037161954 0.05864925
000290 10 a7 08 bc 74 5b 05 be 94 c6 0f 3d 4a 02 80 3d
       -0.008340612 -0.13023168 0.03510149 0.062504366
0002a0 42 33 e5 bd a8 5e b1 3d d6 bb a7 bd 8b 6a f2 bd
       -0.11191417 0.08660632 -0.08190124 -0.11836728
0002b0 92 f5 fe 3d 9b a3 74 3d 56 38 94 3d 53 ac a6 3c
       0.124491826 0.05972634 0.07237308 0.020345842
0002c0 8c 97 3b bd a2 b3 c5 3c 3c 12 9c 3c 60 84 37 3d
       -0.045798823 0.024133507 0.019051664 0.044803977
0002d0 77 14 99 3c 44 8c 77 bd 83 7e 16 bd 7e 6b 0a be
       0.018686516 -0.060436502 -0.036741745 -0.13517568
0002e0 87 c3 3e 3d f3 6d 7d 3c ac 0a c0 bd a4 ab e1 3b
       0.04657319 0.0154681085 -0.093770355 0.0068869162
0002f0 a6 12 3d bd 95 92 79 bc 1d d4 7f bd f0 47 9e bc
       -0.046160363 -0.015232702 -0.062458146 -0.019321412
000300 ce 99 be bc d8 cb e7 3d 52 c6 0d bd b9 6f ba 3d
       -0.0232667 0.11318177 -0.03461296 0.09103341
000310 74 9b 8b 3d 90 19 dd bd 38 18 23 3d 82 b0 d2 bd
       0.0681676 -0.10795891 0.03981802 -0.102875724
000320 13 22 b3 bb cc 04 13 3d 83 8d ca 3d 43 ac a3 3d
       -0.0054667084 0.035893247 0.098902725 0.07991841
000330 8e c8 7d bd 8e 83 24 3d 21 41 e4 bd 1f 36 c6 3d
       -0.061958842 0.040164523 -0.11145235 0.096782915
000340 c4 63 f8 bd bb cc 7f bd 69 a0 aa bd 2a c6 15 3d
       -0.12128404 -0.062451106 -0.08331377 0.036565937
000350 79 be 90 3d d2 71 be 3c 02 da 48 3d 81 d2 d4 3d
       0.0706758 0.023247633 0.049036033 0.10391713
000360 d9 1f 0d 3d 40 b4 28 3d 1f 24 c0 bd 79 27 e6 3d
       0.0344542 0.041187525 -0.093818896 0.112379976
000370 6f 63 ff 3d f4 14 4c 3d 38 4c 21 bd b0 b2 41 bb
       0.12470137 0.04982467 -0.03937933 -0.002955597
000380 45 1f 78 3d 21 f1 9b bd c1 84 bd bc c4 88 ad 3d
       0.060576696 -0.07614351 -0.023134591 0.084733516
000390 ba fd 83 3d 36 ba c2 bb b1 d8 32 3d 57 0b d2 3d
       0.06444879 -0.005942608 0.043663684 0.10256069
0003a0 34 d4 dd 3d f1 fd 99 bd e9 20 49 bd b9 9f 30 3c
       0.1083149 -0.075191386 -0.04910365 0.010780268
0003b0 92 ac b5 3c 20 7e ad bd 4e db 01 3d 44 f1 12 3d
       0.022177014 -0.08471322 0.031703286 0.03587462
0003c0 22 86 bb bd 98 5a 2a 3c 46 d9 77 bd cc 13 2d bd
       -0.09156443 0.010397576 -0.060509942 -0.042255208
0003d0 bf b9 f8 3d 28 1f c6 bc d4 46 40 3d 23 fb c0 bc
       0.12144803 -0.024184778 0.046942547 -0.023557251
0003e0 57 4b 20 bd 78 97 8b 3d c8 65 e9 bd 10 f0 dd bd
       -0.03913435 0.06816 -0.11396366 -0.10836804
0003f0 e6 1e 54 3d bc ac ee bd 70 9a 3e 3c 19 08 83 3d
       0.05178728 -0.1165404 0.0116335 0.06398029

card_conv.0.bias f4 [32]
000000 34 8e 17 bd 39 1d 00 be 60 f0 bf bd a2 24 35 bd
       -0.03700085 -0.12511148 -0.0937202 -0.04422439
000010 ce 84 4c 3d 8e fd e8 bd 2a ce 03 3e 36 df e0 bc
       0.04993134 -0.11376487 0.12871614 -0.027450185
000020 e4 46 13 bb ae f1 4d bd 00 fc eb 3c f9 6e 3d bd
       -0.0022472674 -0.05027931 0.028806686 -0.04624841
000030 db 97 04 be 3e 07 ff 3d 5c fe 27 bd 48 ad ad 3d
       -0.12948553 0.12452553 -0.04101406 0.084803164
000040 ee 55 48 bd 8f 01 f8 3d 48 68 e4 3d 3f 9f d6 bd
       -0.048910074 0.12109672 0.111527026 -0.104795925
000050 0c 65 02 be 54 3b b3 3d 35 ee d3 3d 38 c3 5f 3d
       -0.12733859 0.0875155 0.10348169 0.054629534
000060 91 ab a4 3d 40 a9 c8 bc e7 2a ab bc 36 f3 e1 bd
       0.08040536 -0.024494767 -0.02089448 -0.11032717
000070 c3 ad 6b 3d 99 3a 10 bd 24 0d 87 bd 0f 72 83 3d
       0.05753876 -0.035212133 -0.06594303 0.06418239

card_conv.3.weight f4 [64, 32, 3, 3]
000000 29 3e 8f 3c 33 fb 51 3d 61 84 55 3d ff 64 5e bd
       0.017485695 0.051264953 0.0521282 -0.054295536
000010 8d a3 f9 3c b2 d3 6f bd 51 73 26 bb 02 b0 cc bc
       0.030473495 -0.058551498 -0.0025398324 -0.02498627
000020 37 47 51 3c ae f9 ff bc 17 c4 c2 bc ff 34 47 bd
       0.012773327 -0.031246986 -0.023775144 -0.048634525
000030 dc 7d a1 3c 87 13 4b 38 89 12 0f bd 7b 22 dd bc
       0.019713335 4.8417158e-05 -0.034929786 -0.02699398
000040 75 18 9c bc 9e 50 d6 3c dc f1 9a 3c d3 03 0f bd
       -0.01905463 0.026161488 0.018914156 -0.034915756
000050 27 ef d3 3c c2 39 69 bd d3 94 ab 3c 36 f0 69 3d
       0.025870873 -0.056939848 0.020944988 0.05711385
000060 8e b2 a0 bb 1b 02 b5 3c ee 17 fb bb 0a cb 5b bd
       -0.004904098 0.02209573 -0.0076627648 -0.05366043
000070 a2 da c5 3c 26 78 f7 3c 0e 16 76 bc a4 67 96 bc
       0.024152104 0.030208658 -0.015019907 -0.018359967
000080 43 b8 a4 bc dd a9 86 3a 5f 1b 13 bc 88 32 39 bb
       -0.020107394 0.0010274012 -0.008978694 -0.0028258879
000090 62 3f 63 bd bc d2 15 3d 4e f7 24 bc 4c 9a 61 bd
       -0.05548037 0.036577925 -0.010068728 -0.05507879
0000a0 83 e4 2e bd 6b 77 34 bc ff 72 16 bc f2 87 b3 bc
       -0.042698395 -0.0110148 -0.009182691 -0.02191541
0000b0 da e8 e9 3c 7f cd 5d 3d d0 12 f1 bb de a6 0c bd
       0.028553415 0.054151054 -0.007356979 -0.034338824
0000c0 14 79 cc ba ae 2a 59 bd 1a d4 ad bc 82 f5 10 3d
       -0.0015600049 -0.05301922 -0.021219302 0.035390384
0000d0 df a7 eb bc 8d fb e7 3c 59 2a 32 3b 8b 3e 1e bd
       -0.02876657 0.028318191 0.0027185886 -0.038633864
0000e0 31 70 34 3c 46 a4 87 bc f4 31 7f 3a eb d0 be ba
       0.011013077 -0.016557824 0.00097349216 -0.0014558112
0000f0 d5 34 d2 bc fa 47 5c bd b0 0d f9 3c 9c 1d 51 bc
       -0.025659958 -0.05377958 0.030402035 -0.012763407
000100 e8 d9 d5 3c 60 7d fd bc 19 c9 c1 3c da e0 33 bd
       0.026104882 -0.030943573 0.023655461 -0.043915607
000110 c4 47 9f bc ff 31 7c bc 71 6c 09 bd 5d c4 58 3d
       -0.0194434 -0.015392779 -0.033550683 0.05292164
000120 46 01 6a bc 8b 43 b0 3b 32 30 30 3d 96 94 c1 bc
       -0.01428253 0.0053791455 0.043014713 -0.023630422
000130 1c 9d 4e bd 37 db 98 3a d3 02 83 3c 0c 49 2e bd
       -0.0504428 0.0011662011 0.015992558 -0.04255013
000140 19 2c bd 3c 5d 03 9b 3c ed e5 6f bd 14 4c da bc
       0.023092316 0.018922502 -0.058568884 -0.026647605
000150 b0 87 15 bd 42 e4 9d bc 73 b4 14 3d 8f 96 ed 3c
       -0.036506355 -0.01927388 0.036304902 0.029002456
000160 56 4a 3c bc b1 a5 3a 3c f0 39 05 3d 58 f3 c2 bb
       -0.011492332 0.011392043 0.032525957 -0.005949419
000170 37 cf 4a 3d d0 c7 92 bc 28 a3 a5 3c 8e c3 55 bc
       0.04951402 -0.017917544 0.0202194 -0.013047112
000180 af b5 3a 3d 96 e9 96 3b 1d 0c 98 bc 88 c7 2d bd
       0.045583423 0.0046054823 -0.018560464 -0.042426616
000190 9e 78 5a 3d 18 8d 42 3d 61 8b 8b bb 37 66 9f bc
       0.053337686 0.04749784 -0.0042585586 -0.01945792
0001a0 96 2d dc bc a4 7d 9a 3c 46 7a 13 bd 1d 3f e1 3c
       -0.026877206 0.018858738 -0.03600528 0.027495915
0001b0 08 9e 30 bc 7f b0 62 3d 0f c9 b2 bc 9b 0c c3 3c
       -0.010779865 0.0553441 -0.021824388 0.023809722
0001c0 08 39 23 3d ab 8b 60 3d fa 11 da 3c 3a 7a da 3c
       0.03984931 0.054820698 0.0266199 0.02666961
0001d0 ed fc 05 bc 09 77 30 3d cd da 4b bd 05 ce 34 3d
       -0.008177978 0.04308227 -0.04976921 0.044141788
0001e0 ac 51 29 bc 62 b2 8f bb fe 14 bf bb 2f a9 c3 3a
       -0.0103344135 -0.0043852786 -0.00583136 0.001492774
0001f0 ed f7 27 3d fc 95 3e 3d 7b 21 2d bd 6e b8 4e bd
       0.041007925 0.046529755 -0.042268258 -0.050468855
000200 e1 cb 1b bd 00 2e c5 3a d9 72 52 3d 59 42 eb 3c
       -0.03803623 0.0015043616 0.05137906 0.02871816
000210 70 9d df 3c 0e e0 2a bd be a3 3a 3d ed d0 5d 3c
       0.027296752 -0.04171758 0.045566313 0.013538581
000220 d5 68 08 3d 87 7c 36 bd 5a b6 01 3d 75 eb 08 bd
       0.0333031 -0.044552352 0.031668045 -0.033427674
000230 21 76 6d 3d ef 51 de bc e8 46 32 bd 71 40 8f 3c
       0.057973985 -0.027138678 -0.043524653 0.017486783
000240 52 1f 6b bc 53 d3 f3 3c 0f f8 62 3d 64 dc 5b 3d
       -0.014350729 0.029763853 0.05541235 0.053676978
000250 a4 6d 11 bd 0c 19 c3 bc b2 5b 1e 3d 2e e3 0e bd
       -0.035504952 -0.023815654 0.038661666 -0.034884624
000260 1a ff 5f bd 54 af aa 3c 8c e1 3b 3d 15 d5 01 bd
       -0.054686643 0.020835556 0.045869395 -0.03169735
000270 65 e3 e1 3c 78 7c 83 3c 1d 75 de 3c c9 8b 2c 3d
       0.02757425 0.016050562 0.027155453 0.042125497
000280 1e 09 3c 3c 04 b9 e6 3c 45 8f 85 3c ae d6 10 bd
       0.011476783 0.028164394 0.016303668 -0.035360985
000290 66 de 35 bb 6a 45 02 3c b2 3b f6 3c 4f a3 f5 3c
       -0.0027750968 0.00795112 0.030057762 0.029985098
0002a0 4a c0 46 3c a7 54 15 bd 27 cc e5 ba e2 0f 06 3d
       0.012130806 -0.036457684 -0.0017532156 0.03272999
0002b0 ee dd 8b bc a0 1b fa bc c5 5e 66 bd 0f 7c ad 3b
       -0.017073598 -0.03053075 -0.056242723 0.00529433
0002c0 59 eb 6d bc 83 ae 4b bd bc 3c 2d bc dc f8 f2 3c
       -0.014521443 -0.049726974 -0.010573562 0.029659681
0002d0 ce 11 35 3d 0d 7e cf bc c1 f4 5c 3d 63 c5 93 bc
       0.044206433 -0.02532866 0.053944353 -0.018038457
0002e0 c8 73 fb bc 68 d4 2c 3d cb 28 20 3d e0 b4 0f 3d
       -0.030694857 0.042194754 0.039101403 0.035084605
0002f0 c6 5e 32 bd 02 44 d6 3c ed cb d1 bc 33 26 9e bc
       -0.043547414 0.026155476 -0.025609935 -0.019305324
000300 89 52 91 3c 6f a7 59 3d 61 18 37 bd d4 9b a3 bc
       0.017739551 0.053138193 -0.044700984 -0.019971766
000310 82 87 15 3d 9a 5f ff bc 43 96 66 3d 67 51 18 3d
       0.036506183 -0.031173516 0.056295644 0.037187006
000320 62 4c 7a bc f7 eb fe 3c 04 b9 5e 3d 83 e0 26 3c
       -0.015277 0.031118376 0.054375663 0.010185364
000330 5a 45 e1 3b 54 1c 51 bd 40 c5 d1 bc a4 79 23 ba
       0.0068747224 -0.051052406 -0.025606751 -0.00062360824
000340 c4 22 09 3b 1b 59 ce 3c 4e a2 d6 bc a3 3d 8f ba
       0.0020925263 0.025188973 -0.02620044 -0.0010928403
000350 1d 29 21 bd 43 1c fa 3b 61 06 29 bc 7e 48 53 3d
       -0.03934585 0.0076327636 -0.010316462 0.051582806
000360 b0 b5 18 bd 37 c7 a3 bc cf c7 a1 3b 83 cc 59 3d
       -0.037282646 -0.019992454 0.004937149 0.053173553
000370 ab 52 53 3d 8d 4a ab 3c e5 eb 80 bc 8d dd 19 3d
       0.05159251 0.020909572 -0.015737483 0.037564803
000380 15 4c 44 bd f1 c7 ee 3c c1 d3 4d bc 5c 92 10 bd
       -0.04792412 0.029148074 -0.012562693 -0.03529583
000390 21 b3 b8 bc 35 20 2b bd 73 f9 b7 3b 5a c5 69 bd
       -0.022546353 -0.041778762 0.0056144535 -0.057072975
0003a0 a2 3f 87 bc f7 18 db 3c a8 e6 fe 3c b8 37 36 3d
       -0.016509835 0.026745303 0.031115845 0.04448673
0003b0 40 2b 11 3d 98 1f 20 3d d4 1f f5 bb 7e 5a 98 bc
       0.035441637 0.03909263 -0.007480601 -0.018597838
0003c0 c6 4e 2f 3d 3b 02 06 bd b8 1f 49 bc a1 7a 12 bc
       0.042799734 -0.03271697 -0.012275629 -0.00894037
0003d0 df a1 3b bd b3 73 d5 3c 3e 61 9c bc 64 f2 c4 bc
       -0.04580867 0.026056146 -0.019089337 -0.024041362
0003e0 94 84 07 3d 82 f5 64 3c e3 b9 cb bc 79 12 b0 3c
       0.03308542 0.013974549 -0.024868911 0.021493183
0003f0 4d 75 6b 3d 13 a6 49 3d e5 06 72 bd 6d 43 82 bc
       0.057484914 0.049230646 -0.059088606 -0.015901292

card_conv.3.bias f4 [64]
000000 09 ac 85 bc e5 ac 24 bd fb 8a 5c bd 14 c1 62 3d
       -0.016317384 -0.040203948 -0.05384348 0.055359915
000010 60 45 1e 3c 0b 91 02 bd ab 06 ec 3c 45 6e 2a bd
       0.009660095 -0.031876605 0.028811773 -0.041609067
000020 39 2c 09 3d 84 98 43 bd ec 43 a4 3c f5 3e ab 3c
       0.03348944 -0.047752872 0.020051919 0.020904044
000030 26 df 48 3d d6 b1 1c bd 49 9d f0 ba a0 3a 72 bc
       0.049040936 -0.038255535 -0.0018357422 -0.014784485
000040 57 e7 17 bc a5 a7 2d bd a7 ef 59 bd fc 73 2b bd
       -0.009271464 -0.042396206 -0.053207066 -0.04185866
000050 ba cc 5c bd 5b 0c 88 3c 30 05 7c bc 09 37 c9 3c
       -0.05390618 0.016607454 -0.015382096 0.024562376
000060 ed d8 60 3d 41 5d c2 bc 5a 51 b5 bc f1 c1 01 3d
       0.054894377 -0.023726108 -0.022133518 0.031679098
000070 d2 bb 9c bc b7 5d 1f bd b5 36 09 3d 33 c8 0a 3d
       -0.019132528 -0.038907733 0.03349944 0.03388233
000080 64 7f 58 3d ef 96 6b bc 51 0f 21 3d de 9d 3c 3c
       0.052855864 -0.014379247 0.039321247 0.011512248
000090 51 83 6e bd 8c 54 f3 3c ad cc 89 bc 1f 12 f9 3b
       -0.0582307 0.029703401 -0.01682123 0.007601037
0000a0 48 4b 22 3d 9f c2 54 bd 95 e7 5f bd 97 5c 88 bc
       0.039622575 -0.051943418 -0.054664213 -0.016645713
0000b0 97 6c 57 3d 5a 74 38 3d c9 dd 4f 3d 60 bc 06 bc
       0.052593794 0.045032836 0.05074862 -0.008223623
0000c0 5d 96 e4 3c 07 f4 e5 3b 78 3c 66 3d a3 d3 67 3d
       0.02790373 0.0070176157 0.05621001 0.056598317
0000d0 69 70 8f b9 ce 76 13 3d 05 a7 0f 3d 81 6b 39 3d
       -0.00027358838 0.036001973 0.03507139 0.04526854
0000e0 32 b1 c5 bc 4d 5a b6 bc 39 b0 62 3d c7 92 be 3a
       -0.024132345 -0.022259856 0.05534384 0.0014539593
0000f0 ea 5a b9 3c 50 7c 82 bc 0f be e8 3c d8 23 02 3d
       0.022626359 -0.015928417 0.02841094 0.031772465

action_fc.0.weight f4 [128, 128]
000000 f5 30 65 3d c9 8d ee 3c 79 31 c6 3c 6d ac b5 3c
       0.055954892 0.029120343 0.024193512 0.022176946
000010 7e 11 15 bd bc a9 9f 3c 3a f9 85 3d e0 4b 66 bd
       -0.036393635 0.019490115 0.06541677 -0.056224704
000020 16 be 93 3d 6a c0 ee bb cd 66 2f 3d 4c 43 a5 bd
       0.072139904 -0.007286121 0.042822648 -0.080694765
000030 a7 66 a6 bd e7 61 84 bb f2 1a 91 3d ef f9 9b 3d
       -0.08125048 -0.004039991 0.070852175 0.076160304
000040 44 81 59 bc 59 eb 1b bd 50 36 c4 bc 29 df 8e bd
       -0.013275448 -0.038066242 -0.02395168 -0.06976158
000050 4c 7e 3f 3d 95 5e 80 ba 51 8f 10 3d 41 94 63 bd
       0.046751305 -0.0009793813 0.035292927 -0.055561308
000060 ca ce b0 3b 7c bb 70 3d 60 83 1f bc c1 f8 96 3d
       0.005395745 0.05877255 -0.009735912 0.07371665
000070 ec 2f 29 bd 55 b1 73 3d fa 50 81 3a 84 3c c7 3c
       -0.041305467 0.05949529 0.0009866052 0.024320848
000080 bc 4c 8f bd 08 91 2f 3d ff d5 f1 39 a6 bd de 3c
       -0.06997058 0.042862922 0.00046126542 0.02719004
000090 c3 fb 4f bb 5e 0c 92 ba 56 7c 98 bd 2a 8e 08 bc
       -0.0031735755 -0.0011142602 -0.0744559 -0.008334676
0000a0 af c8 99 3d 72 a3 92 bd a6 03 96 bb c9 63 6f bd
       0.075089805 -0.07160081 -0.0045780716 -0.058444772
0000b0 50 56 55 3d 2d 1a d6 3b 07 d1 87 3d 28 8e 80 3c
       0.052084267 0.006533882 0.06631666 0.015692785
0000c0 ef 30 23 bd f9 eb 77 3d fb 38 4b 3d ad f1 3f 3d
       -0.03984159 0.060527775 0.049614888 0.04686134
0000d0 a6 ec 71 bd 77 e5 a9 3c 28 bd de bc 85 4c 57 bc
       -0.059063576 0.0207393 -0.027189806 -0.013140802
0000e0 3d eb 38 3d df 0a 7a bc 7f 72 a7 3d e0 35 9d 3d
       0.045146216 -0.015261381 0.08176135 0.076762915
0000f0 e1 d6 c4 ba a8 91 a5 3d 9b cf 80 bd 31 dc 02 3d
       -0.0015017652 0.08084422 -0.062895976 0.031948272
000100 1a 78 48 3d df 15 bf 3c 17 6a 98 3d c2 94 02 3d
       0.048942663 0.023325859 0.0744211 0.031880148
000110 fa d9 05 bd 8e ab c2 bc bd d4 47 3d f1 91 0a bd
       -0.03267858 -0.023763444 0.048786867 -0.033830587
000120 58 6b 5a 3d de 73 35 3d 1c 41 d1 bc de 8c c3 bc
       0.053325027 0.044299953 -0.025543742 -0.023870882
000130 41 2d 56 3d a0 ca 87 bc fe 2b 1e 3d 83 2f a4 3d
       0.05228925 -0.016576111 0.038616173 0.08016875
000140 98 58 a0 bb 16 3f 99 bc 9e 11 01 3d 5f 27 93 bd
       -0.0048933737 -0.01870684 0.03151094 -0.07185244
000150 53 94 f0 3c 07 49 81 3d b0 89 1d 3d 9a 96 89 3d
       0.029367601 0.06312757 0.038461387 0.06718178
000160 bf ba 93 bd 93 0d 86 bd 70 cd 84 bd 48 d5 bf bc
       -0.07213353 -0.06545558 -0.064844966 -0.02341713
000170 fb 31 1d 3d 6b 3b 11 bd 06 9c b0 3d 28 da ec bc
       0.038377743 -0.035457056 0.08623509 -0.028912619
000180 1b be 64 bd dc a5 9c 3c f4 92 94 3d c9 35 a2 3d
       -0.05584536 0.019122057 0.072545916 0.07920415
000190 90 be a3 ba 45 87 5c 3d b7 6f e3 3c dc ac 7d bd
       -0.0012492705 0.05383994 0.02776323 -0.06193243
0001a0 23 3d 3e 3a ab 83 27 bd 6e 37 1e 3d 04 03 98 3c
       0.0007257035 -0.040897053 0.03862708 0.018556125
0001b0 89 db 7e bd 63 a9 3b 3d 8d 5b b7 bb ef 38 83 bd
       -0.062221084 0.045815837 -0.0055956305 -0.064073436
0001c0 0b 3b e6 3b dd 50 b5 bc 61 7c f2 3c 80 17 89 3d
       0.0070260814 -0.022133285 0.029600324 0.066939354
0001d0 26 99 6b bd 3d 92 7c 3d 11 03 ac 3d 7b 11 43 ba
       -0.0575191 0.0616629 0.08399022 -0.00074412645
0001e0 5b ef 41 bc 66 d6 04 bc 38 90 17 3d e0 98 6c 3b
       -0.011836852 -0.008107757 0.037002772 0.0036101863
0001f0 0e 9b 36 bd 28 e6 30 bd 7d 1d c9 3b 38 8e cd 3c
       -0.044581465 -0.043188244 0.0061375485 0.02509223
000200 62 2a 8e 3d 17 ab a1 bd a3 c4 82 bc be ba aa 3c
       0.06941678 -0.07893961 -0.015962904 0.020840999
000210 21 5c 98 bc c1 99 e0 3b 5e 2c 14 bd 7b a4 7c 3c
       -0.018598618 0.0068542664 -0.036175124 0.015420075
000220 31 e4 6c 3d 09 33 90 bd 72 d6 a4 3b ca 9f 46 3d
       0.057834808 -0.07040984 0.0050304467 0.04849223
000230 90 bc 95 3d 2a 52 12 3c 39 13 9d 3d 08 91 00 bd
       0.07311356 0.008930722 0.07669682 -0.031388313
000240 24 ca 82 3b 78 22 6f bd f3 de e1 3c d8 f3 8d bd
       0.003991382 -0.05838248 0.02757213 -0.06931275
000250 d8 15 8e 3d 33 43 02 bd c0 df 70 3d 67 fd 75 bd
       0.0693776 -0.031802367 0.058807135 -0.060056116
000260 12 c8 83 3d 58 ef 88 3b f7 be ab 3d 22 86 97 3d
       0.06434645 0.0041789226 0.08386033 0.07398631
000270 f1 e6 02 bc ea ee c5 bc 9c 24 de 3b 56 3f 9c 3c
       -0.007989631 -0.024161775 0.0067792665 0.01907317
000280 bb c5 fd bc 27 54 27 3d 85 f1 92 3d d2 ed 9a 3d
       -0.030978074 0.04085174 0.071749724 0.07564892
000290 53 b6 96 bd fb a3 df 3c 75 69 52 bd 4b b7 e3 bc
       -0.07358994 0.027299872 -0.051370103 -0.027797362
0002a0 55 58 a0 3d 07 15 e9 3c 32 c0 34 3d 95 c8 3f bc
       0.07829348 0.02845241 0.044128604 -0.011705537
0002b0 7d 4e 78 bd a7 db 79 bd 45 43 ad 3d a7 da c2 bc
       -0.060621727 -0.061000492 0.08460096 -0.023785902
0002c0 66 ea 2f 3d c1 cf a9 3c 1b a5 9b bd 9d a4 ad 3d
       0.04294815 0.020728948 -0.07599851 0.08478663
0002d0 e9 66 c0 bc 3f ed 83 3c 1e ad ae 3d 29 b3 a5 3c
       -0.023486571 0.016104339 0.08529113 0.020227032
0002e0 0e 28 5f 3d 27 93 96 bd ab 24 98 3d c2 d8 8a bb
       0.05448156 -0.07352286 0.07428869 -0.0042372653
0002f0 23 fd aa bd af 36 64 bd 13 23 2e bd bb 1f 4b 3d
       -0.08349063 -0.055716213 -0.042513918 0.049590807
000300 52 62 60 bd 17 32 85 3d a2 8a 62 bd 46 79 83 3d
       -0.054781266 0.065036945 -0.05530799 0.064196154
000310 0b 46 55 bd ab fb dd bb d3 4e 9a bc 3a 9d 84 bb
       -0.05206875 -0.006774386 -0.018836414 -0.004047063
000320 c3 c6 9c 3c d9 23 7f bd 06 43 05 bc 11 3c 93 3d
       0.019137746 -0.062290046 -0.008133655 0.07189191
000330 84 28 54 bc a7 28 97 3d dc ee ad bd 01 68 f8 3b
       -0.012949113 0.07380801 -0.084928244 0.0075807576
000340 a2 aa cf bc 3e 95 4d bd 38 33 17 3c 86 f6 a5 3d
       -0.025349919 -0.050191157 0.00922852 0.08103661
000350 c6 b6 61 bc ef 58 98 bd 3b 23 a4 3d 01 ca 3d 3d
       -0.013776487 -0.07438838 0.08014532 0.046335224
000360 96 ec 76 3d 4b 64 a1 bd 40 9f 8a bd 8e 80 3f bd
       0.06028422 -0.078804575 -0.06768656 -0.04675346
000370 a1 6c a6 bd 9b d2 97 bd 50 ef 85 bd 31 c3 b2 3d
       -0.08126188 -0.07413217 -0.06539786 0.08728636
000380 6a 4e a0 ba 0d ac 7e bd b0 0e a3 bd 8f 8e ff bc
       -0.00122304 -0.0621758 -0.07961786 -0.031195907
000390 a5 06 0f 3d 07 ab 7f bd d0 ef 8f 3d bd 68 2b 3c
       0.034918446 -0.062418964 0.070281625 0.010461983
0003a0 47 38 09 bd 76 05 75 3c da ec b1 3d c4 35 99 bc
       -0.033500936 0.014954915 0.08687754 -0.018702395
0003b0 86 6b a7 bd a3 f7 2e bc 3a 56 00 bd e4 a6 7b bc
       -0.08174805 -0.010679158 -0.031332232 -0.015359614
0003c0 82 b5 46 3d b7 48 14 bd ab 73 3b bc 45 da b4 bd
       0.048512943 -0.03620216 -0.011441152 -0.08830694
0003d0 48 50 90 3d 70 46 64 3d de 7f bb 3c c6 0c 7a bd
       0.070465624 0.055731237 0.02288812 -0.061047338
0003e0 26 45 ba 3c 4f b7 87 3d b5 8a ef bc 92 5e ac 3d
       0.02273805 0.0662676 -0.029240945 0.08416475
0003f0 2b d3 c9 3c 06 00 71 3c e9 10 74 bd f9 1a d3 3c
       0.024636826 0.014709478 -0.05958644 0.025769698

action_fc.0.bias f4 [128]
000000 5f be 67 bd ff 7a 70 bd 43 45 a9 bd c0 af 0d 3b
       -0.056578036 -0.05871105 -0.08265164 0.0021619648
000010 17 34 6a bc df de 9f bd c8 07 92 3d 87 11 6d 3c
       -0.014294646 -0.07806181 0.071303904 0.014469511
000020 a6 bd 32 3c 9f b4 36 bc 96 50 70 bc 2d 40 de 3b
       0.0109094735 -0.011151462 -0.014667651 0.0067825527
000030 81 65 cc bc e3 f7 44 3d 6f 63 94 3c 0d 54 22 bd
       -0.024950745 0.048087966 0.01811382 -0.03963094
000040 58 80 9b bc 1e 64 25 bd 9c 5c 5b 3d 7f 07 b2 bd
       -0.018982098 -0.040378682 0.053555116 -0.08692836
000050 95 75 a1 bd f0 63 20 bc 5d 45 8d 3d 0d 19 89 3c
       -0.07883755 -0.009789452 0.068979956 0.016735578
000060 94 cc 84 bd 4c 91 66 bd 66 72 90 bd 33 cd c0 3b
       -0.06484333 -0.05629091 -0.0705307 0.0058838367
000070 da 05 a5 bd 42 fa 70 3d 8d 7f 35 3d bd 58 af bd
       -0.08057757 0.058832414 0.044311095 -0.08561847
000080 93 e6 10 3d 4c 01 fa 3c 06 a1 69 bd 60 e6 a7 3d
       0.035376143 0.030518197 -0.05703833 0.081982374
000090 76 dc 78 bc 3f 58 54 bb ac 20 17 bd 9e 4a 88 bd
       -0.015189281 -0.0032401232 -0.036896393 -0.06654857
0000a0 62 53 42 3c 71 aa 8e bc 04 3f 48 3d 67 fd 4b 3c
       0.0118607 -0.017415257 0.04888822 0.012450553
0000b0 0b 2a ae 3d 03 c7 88 bc c3 9e 89 bd da 5b d8 bb
       0.08504113 -0.016696459 -0.067197345 -0.0066027464
0000c0 62 94 b9 ba 9b c4 af bd 4d 79 8a 3b ce c4 53 bd
       -0.0014158601 -0.085824214 0.004225886 -0.05170136
0000d0 8a 43 95 3d c4 c7 79 bd 75 09 9d bd 9e 39 fa 3c
       0.07288273 -0.060981527 -0.076678194 0.030545052
0000e0 f9 35 94 bd 3c d7 59 bd fa b1 20 3d a8 94 85 3b
       -0.07236857 -0.05318378 0.03923223 0.004076559
0000f0 c3 db f3 bc dc d7 03 bd e9 54 af 3b ed 84 26 3c
       -0.029767876 -0.03218828 0.0053506983 0.010163528
000100 8c 5f 8e 3c cf b0 ad 3d 79 21 83 3d a9 f2 2c bd
       0.017379545 0.08480989 0.06402869 -0.042223606
000110 04 3e 64 bd 71 7f ce bc b5 be 7b 3d 80 2d b5 bc
       -0.055723205 -0.025207253 0.06146117 -0.022116423
000120 4f 8b a4 3d 2a d0 e2 3b 31 17 95 bd ee dd 5e 3d
       0.080343835 0.0069217877 -0.07279814 0.054410867
000130 b3 73 f4 bc 26 34 78 bd 6d ab 23 bb ec cb 92 3d
       -0.029840326 -0.060596608 -0.0024974004 0.07167801
000140 b9 38 90 3d 5f 86 99 3c 9e 09 9b bd f8 df f5 bc
       0.07042069 0.018740831 -0.07570194 -0.030014023
000150 16 c8 4f bd 6b b8 c8 ba 8d dc 8d 3d a2 01 87 bd
       -0.050727926 -0.001531375 0.06926832 -0.06592108
000160 d1 5b a0 bd 01 88 24 bd 44 37 3c 3d bb 7d 6a 3d
       -0.078300126 -0.040168766 0.045951143 0.057248812
000170 46 90 9b 3d f2 62 9b 3c 5c c5 64 3d e6 ec 54 3d
       0.07595877 0.01896808 0.05585228 0.051983736
000180 a4 d1 14 bd 52 a3 f0 bc b9 0e 8c bc 10 83 17 3d
       -0.03633274 -0.029374752 -0.017096864 0.036990225
000190 24 5f 3d bd 0b 54 c8 3b 34 08 85 3d 72 1a 28 3c
       -0.04623331 0.0061135343 0.06495705 0.010260211
0001a0 42 39 1e bd 63 da 80 bc 37 fd a8 3d e0 08 87 3d
       -0.038628824 -0.015729135 0.08251422 0.0659349
0001b0 91 6e 3f 3b e1 0c 8c bc 86 27 a9 bb f6 ff 91 3d
       0.002921019 -0.017095985 -0.0051621823 0.07128899
0001c0 4e 0d cf bc 62 71 77 3c d4 7e 81 bd ee ed a5 bd
       -0.025274899 0.015102716 -0.06323019 -0.08102022
0001d0 7d ca 53 3c 41 78 8f 3d 39 b9 80 3d 29 a1 30 3d
       0.012926695 0.070053585 0.062853284 0.043122444
0001e0 af fe c1 3c cf 2a 67 3c 0f e9 35 bd 7a 25 9e 3d
       0.023681013 0.014109327 -0.044411715 0.07721992
0001f0 db 99 12 3d 10 ae ac bd 95 44 e1 3b 03 8d 0e 3c
       0.03579126 -0.08431637 0.0068746307 0.008700612
